cnn.pth (torch, 75883 bytes, 6 tensors)

cnn1.weight f4 [16, 1, 5, 5]
00000000: d824 593d 3795 b13d 5473 a9be 715e a6be
00000010: 5439 8ebe 07c4 4dbe f4e2 6c3e 1bb2 883e
00000020: 3480 ac3e c98d e93e 99f3 8abd d636 4fbd
00000030: 8eca c03e 5b9f 633e 67b0 803d 8df9 403e
00000040: fe09 ed3d fbd9 6abe 579c 70be 402b 95be
00000050: 487b 74bc 514f 34be ee1c 33bd bbd5 763a
00000060: 8e7a 4e3e 886d 32bd 3921 e93d a229 f6bb
00000070: 73a6 2b3e 47b4 9ebc 49c5 513e 9864 5f3e
00000080: d2b4 273e ddd1 083f d7a1 d33e 088a 84be
00000090: 19ee 613e 2ee0 383f cf6f ce3e a6e3 97bd
000000a0: a968 083e 7797 433f e47c ce3e fe61 c2be
000000b0: a222 c4be bb1e 8b3e eba6 893e fc2a 94be
000000c0: fe87 b2be 4586 5e3d 60d2 5fbe 87a1 7b3e
000000d0: 6825 843e 691a 88be 046d a6be c61f b13d
000000e0: d9f4 b03e 7b3d 033f 0b57 ae3e 0d5c 8d3e
000000f0: 9574 16bd 2d49 9a3e 5a7c 34bc 0fa6 e83e
00000100: fd02 9d3e 7b6d 143e aa9a c73c bd5b 9ebe
00000110: a964 6fbe 7505 a0bc 4d04 1dbd 5d33 94be
00000120: 6871 8ebe 32c7 90be dbaa 09be a83f 453e
00000130: 7589 873e f13f dcbd 83e0 72be dbde 43bd
00000140: 7015 073e 65bd 253f 04f3 abbd 4ec9 0ebf
00000150: b6d0 74be 15e7 8abd e8f1 3d3f dcbd 173f
00000160: f7dd 1ebe 9d7d eabe 6fad 2fbe 7aa4 b13e
00000170: 9f6b 603f 28f4 343f 0d09 9f3e a194 82be
00000180: 2069 a4be e89e 8e3d 5bc4 ad3e 69c9 043c
00000190: 18cf 43be 2755 833d 3fe5 91bc 45a3 47be
000001a0: 76ef 98be 1694 a13c 6464 9cbe b85e 9dbe
000001b0: fa41 96be 7726 72be b401 473e 0e1e 77bd
000001c0: 0cb2 9bbe 6d59 54be 6a01 663d 9e70 9c3e
000001d0: 6303 293e 27c6 af3c 942d 2f3e a5ae 9d3e
000001e0: 4a30 373e 12b7 fb3c bcc7 3a3e e7af 303e
000001f0: d69c 873e 64b6 eebd b4db 7b3d 24a6 5e3e
00000200: ae4a 433d f3ea f43d 570e 0cbe 1ec2 f33e
00000210: 33bd 6c3e 5ee4 883d 4849 9e3d ee6e af3d
00000220: fff5 0c3f 6014 9fbc d0e3 d13d a5c1 6bbd
00000230: 3bad 2f3e 5910 573e d7de a6be 98b9 a3bd
00000240: be12 b93d 10c2 033e 6fad a03c fa0b 5bbd
00000250: 7c9d 2f3d 053d 8e3d e677 46be aa66 80be
00000260: ac80 b2be 6962 0a3e c339 35be ffd4 8dbe
00000270: 3661 eabe 0bd5 9f3e 7020 8b3e e892 8dbe
00000280: 8f29 66be ce5f f3bc cc24 183f 43ce 893e
00000290: 8317 dcbe b45a cdbd b064 ed3e 29f8 313f
000002a0: 4002 14be 943b ccbe 2ab8 c93e 8b29 143f
000002b0: b151 d33e b41a e0bd c31b 0bbe 498e 403d
000002c0: 1208 913d 3175 97bd 0521 93bd 5c66 6d3e
000002d0: 13c4 7e3e 31a0 053e 662e 95be c144 67be
000002e0: ab05 f4bd 0b4d 373e 3ff7 af3e c010 18be
000002f0: 0565 c2bd 9e1d 42be dbae 6c3d 13e0 bc3e
00000300: 6328 a43e 098c 40be 2e36 01bd 4b3e 873d
00000310: f0ea 2f3d fd2d 073e 8e1e 3e3e 14a3 48be
00000320: 38ed 693d 4be4 53be c9c9 c6bc 413c 8b3e
00000330: de0b 293d cbda c8bd 7989 abbe 458c f1bc
00000340: 5734 d23e 8ec8 733e 45ac 853d 2786 3f3d
00000350: 6dde 653d aeeb 0a3f ecaf a13e 0723 7f3e
00000360: 0c7c 963e 675c 4abd 6aed 4a3e ad6e 163f
00000370: 7fdc aa3d d791 bfbe 9c9f b6be b3bb 5dbc
00000380: 6dba 813e 1157 e3bd 0b42 2f3c 20bb 95be
00000390: 6f16 063d dc1a fe3e e603 b13c f5cd b8bd
000003a0: 1ded e7bd c7ed 1c3e 9ca2 ee3e 394d 913d
000003b0: 489d d3bd 52ae b8be 8f73 babc 0497 283f
000003c0: 64c0 a4bd c793 6fbd 3021 9abe 83f6 d13d
000003d0: cbb7 de3e e5d5 433e 456f 58be 054e 20be
000003e0: 5966 1bbd b730 5f3e fc27 5dbd 9a33 7bbd
000003f0: 14c9 a7be e43c 97be fbb7 a6be 8b61 30be
0.053013653 0.086710386 -0.330958 -0.32493928 -0.27778113 -0.2009431 0.23133451 0.26698384
0.3369156 0.45615986 -0.06784744 -0.050589405 0.37654537 0.22228758 0.06283646 0.18845196
0.115741715 -0.22934715 -0.23497139 -0.2913456 -0.014921971 -0.17608382 -0.04372876 0.00094160036
0.20163938 -0.04356149 0.1138329 -0.0075122872 0.16762714 -0.019373072 0.20485415 0.21815717
0.16377571 0.53445226 0.41334412 -0.2588656 0.22063483 0.7221707 0.40319678 -0.07416467
0.13321175 0.7640299 0.4032966 -0.37965387 -0.38307673 0.27171883 0.2688516 -0.28939044
-0.3486938 0.05432727 -0.21857595 0.24573337 0.2580979 -0.2658265 -0.32505047 0.086486384
0.34561804 0.51265687 0.34050784 0.27609292 -0.036732275 0.30133954 -0.011015976 0.45439193
0.30666342 0.14494888 0.024365742 -0.30929366 -0.23378243 -0.019533852 -0.03833418 -0.28945437
-0.27820897 -0.28276974 -0.13444082 0.19262564 0.2647206 -0.10754383 -0.23718457 -0.047819953
0.13191772 0.6474212 -0.08395961 -0.55775917 -0.23907742 -0.06782357 0.74197245 0.5927408
-0.1551436 -0.4579896 -0.17156003 0.34695798 0.87664217 0.7068505 0.31061593 -0.2550402
-0.32111454 0.06963903 0.3393887 0.008104661 -0.19121969 0.06412726 -0.017809508 -0.19495876
-0.29870194 0.019723933 -0.30545342 -0.30736327 -0.2934721 -0.23647486 0.19434243 -0.060331397
-0.30409276 -0.20737238 0.056153692 0.3055467 0.16505198 0.021456791 0.1710723 0.30797306
0.17889515 0.030726943 0.18240255 0.17254601 0.26486844 -0.11655882 0.061488822 0.21743065
0.047678642 0.119588755 -0.13677345 0.47609037 0.23119049 0.066841826 0.07728821 0.0856608
0.5506286 -0.019418895 0.1024853 -0.05755772 0.17155926 0.2100233 -0.32591888 -0.079943836
0.09036778 0.12866998 0.01961395 -0.05347822 0.0428748 0.06945232 -0.19381675 -0.25078326
-0.34863794 0.13514103 -0.17697816 -0.27701566 -0.4577729 0.31217226 0.27173185 -0.27651143
-0.22476791 -0.02970877 0.5943115 0.26915178 -0.42986688 -0.10027066 0.4636588 0.6951929
-0.14453983 -0.39889205 0.3939832 0.5787589 0.41273263 -0.10942593 -0.13584809 0.047010694
0.070816174 -0.07395399 -0.07184032 0.23183578 0.24879484 0.1304939 -0.29136962 -0.22584821
-0.119151436 0.17900483 0.3436832 -0.1485014 -0.09491924 -0.1895661 0.057783943 0.36889705
0.32062063 -0.18803419 -0.03154581 0.06603678 0.042948663 0.13201137 0.18566343 -0.1959346
0.057110995 -0.20692556 -0.02426614 0.27194408 0.041271083 -0.098073564 -0.3350332 -0.029485831
0.41055557 0.23806974 0.065269984 0.046758797 0.056120325 0.5426587 0.3157953 0.24915706
0.29391515 -0.049404528 0.19817129 0.5876263 0.083428375 -0.37415954 -0.35668647 -0.0135335205
0.25337544 -0.11100591 0.010696898 -0.29244328 0.032736238 0.49629867 0.021608304 -0.09023658
-0.11324523 0.1532508 0.46608436 0.07094807 -0.103327334 -0.36070496 -0.02276018 0.6585543
-0.08044508 -0.05849054 -0.30103445 0.102520965 0.43499598 0.19124563 -0.21136196 -0.15654762
-0.037939403 0.21795927 -0.05399321 -0.061328508 -0.32770598 -0.29538643 -0.3256224 -0.1722471

cnn1.bias f4 [16]
00000000: 620b 80bb ea25 fabb 45a2 8f3d 8c99 e13a
00000010: 450f 103e f1c9 08be 90e6 183e 68c3 2fbb
00000020: 52ee 09bd cb3e 3f3c b954 213d f772 80bd
00000030: 2812 863e e80e 253c a83e 6a3d 22f1 36be
-0.003907607 -0.0076339142 0.07013372 0.0017211898 0.14068325 -0.13358285 0.14931703 -0.0026819352
-0.033674546 0.011672686 0.03938744 -0.06271928 0.26185727 0.010074355 0.05718866 -0.17865422

cnn2.weight f4 [32, 16, 5, 5]
00000000: 2b81 8dbd 3671 1b3d 6cb0 aabd ca50 71bd
00000010: b5d2 993d 7762 b53c 165d 6b3c 8a19 31bd
00000020: 5995 613d 69ae 2e3d 62e5 753c b57b 41bd
00000030: 00c8 08be 6060 87bc 9ac3 fa3c f087 9b3d
00000040: a3e4 24bd 3ecc ebbd 0f6f 7d3c 2ba4 e3bc
00000050: 6ffa 4bbd 55c9 6dbd 3232 173d 7fb5 803d
00000060: ccc9 a63c 3294 10bd 3b82 093e 5b60 21be
00000070: 0a3d 1e3e f48d af3d 4da5 1fbd 9662 fabc
00000080: 95c4 ba3d 4062 8b3e cc7d 24bd 0f0a 603d
00000090: e24c 3fbc 2122 2e3e 4592 063c 2158 85bd
000000a0: 9252 efbc aa10 b43b e6c2 003e 6880 0dbc
000000b0: a1f5 6fbd 8b41 2c3d e686 8dbc d973 0ebe
000000c0: 3c57 fdbd e2d4 8bbd 34f5 19bd 6ef0 09bd
000000d0: d783 d8bc 04e9 a7bd c961 b43d 7298 c8bd
000000e0: 8924 283d f18a 22be 8f02 51bb 91b9 e2bc
000000f0: 5fc2 c03d 1479 8dbd f347 96bd 6893 623e
00000100: 1074 e3bd e3cd f23c 2bfc 47bd 977b c83c
00000110: 0f10 ac3d c0ee 81bd ea30 07be 7c02 20bd
00000120: 17b0 643c d11d 273b 4696 b6bd da9f b2bd
00000130: 2372 5d3c 8ac4 b23d ea40 28be 74aa 22be
00000140: fd6b debd bd31 46bd 2176 2ebe 5748 1bbd
00000150: b73d 9fbd 1cce e63d f4ba a53c 0138 f9bd
00000160: 336e 6c3e 060e 1cbc 4363 2dbe e6e1 a1bd
00000170: 393c 093e dc82 333e bfd9 a2bd 3fe1 b83d
00000180: 0819 b5bd f3f8 24bd c587 9a3c 71b6 88bd
00000190: 1bc9 da3c e8f2 ccbd 762b e63c 7209 1d3d
000001a0: f305 26bd b375 4bbd 2b4d 14bd 9642 533c
000001b0: e475 c33b 34e7 0dbc 35c9 fabc 2f77 a63d
000001c0: dfb7 3fbd 5707 cabb f282 a8bd 9240 aabd
000001d0: 067b 81bd 4c81 4ebd 51d9 253d 2e36 adba
000001e0: d847 cf3d e882 453c d2c8 273c ae00 a3bd
000001f0: dfb1 7ebd f330 28bd 2500 e73d 5f7e 073e
00000200: bf35 18bd 3a24 a73d 8770 15bc 7212 af3d
00000210: c89a 8fbd 146d 333e efca 533d d686 fc3b
00000220: defb 9a3d 8a9e 0bbd 36ab 243e 5f14 04bd
00000230: e33d 9dbc c96a c03c 97d1 07bc 5008 683c
00000240: de2e b8bd ab68 a3bc 22af a2bc abd7 30bd
00000250: e5dd 70bd a5c7 463a 8c97 89bd 1875 e93d
00000260: ec33 3abd 7b69 7d3d 9411 3a3d e964 cc3c
00000270: 405f 923d b5e0 4d3e c41c 303e 7057 1fbe
00000280: 6d5b ccbd 822c 86bd 4623 243e 8a32 6eb9
00000290: aa62 12be ca05 fa3c 640d 6d3d 4c45 4cbd
000002a0: 715b a8bd d248 08be 5aa3 123e 6995 0f3d
000002b0: 08a8 85bd f68c 0bbe a8b6 babd 9b36 c33a
000002c0: 226b efbc 103c 543d 6987 2abb 69d9 00be
000002d0: 0233 49bb 828a dcbb 74be a83c 746d 593d
000002e0: 9e53 b1bd 82b5 033d e848 b43c 774b d0bd
000002f0: 0fb7 bdbb 1267 5a3d 876c c53b 1500 f8bc
00000300: 36f5 633b 223b 8d3d c519 bf3c 875a c33d
00000310: 5e87 253d d165 673d 6288 3fbc 50e9 3dbd
00000320: 837d cf3d 305f cabc a3e0 a73d d0d6 82bc
00000330: 22ed 143e 96ff 88bc 309b 25bd 805e 763d
00000340: 9698 84bd c8ae b73c a16e f03d dc82 373d
00000350: 8dc1 4c3e 9da5 14bd b7fa efbd 3c93 afbd
00000360: bd72 033d 02e3 723d 3377 043d ec80 01bd
00000370: 073e b4bd 398b c83b 1e98 37bd e4d4 41bd
00000380: aa60 0bbd 4875 833d 8ca2 f0bc 2856 00bc
00000390: ec35 efbc a5d2 a03b d983 773c 0979 283d
000003a0: 05b6 833d 48b7 be3b 53aa afbd c7d4 80bc
000003b0: 034d 163c ca68 6d3d 58f6 4fbd b679 53bd
000003c0: c4bb 72bb 236c 1e3e 059e 153d a0b7 3fbd
000003d0: 642a 1bbd 3cd0 e6bd 627f 23bc b400 afb9
000003e0: 2cce ed3b c384 c23c d5e4 0b3d e277 93bc
000003f0: 0564 953c 25b6 80bd c2a8 083c 422e 42bc
-0.069094025 0.037949763 -0.08334431 -0.058914937 0.07510892 0.022141678 0.014365455 -0.043237247
0.05507407 0.0426468 0.015008302 -0.047237117 -0.13357544 -0.016525447 0.030610848 0.075942874
-0.040257107 -0.115135655 0.015468373 -0.027788242 -0.04979938 -0.058053333 0.036913104 0.06284618
0.020359896 -0.03529758 0.13428585 -0.15759413 0.15452972 0.08571997 -0.038976002 -0.030564588
0.09119526 0.27223396 -0.04015903 0.054697093 -0.011676045 0.17005207 0.008213584 -0.0651095
-0.029214177 0.0054951506 0.12574348 -0.0086365715 -0.05858386 0.042054694 -0.017276239 -0.1391138
-0.12370154 -0.068277135 -0.03758736 -0.033676557 -0.026430054 -0.08198741 0.088077135 -0.09794702
0.041050468 -0.15873314 -0.0031892394 -0.027676376 0.09412073 -0.069078594 -0.07337942 0.22126544
-0.111061215 0.02963919 -0.04882447 0.024472995 0.084015004 -0.06344366 -0.13202253 -0.03906487
0.013957999 0.002549995 -0.08915381 -0.087218955 0.013515982 0.08728893 -0.16431013 -0.15885335
-0.10860441 -0.048387278 -0.1703725 -0.037910786 -0.07775443 0.11269781 0.020230748 -0.12168885
0.23088913 -0.009524828 -0.16932397 -0.07904415 0.1340188 0.17530388 -0.07951688 0.09027337
-0.08842665 -0.04027648 0.018863568 -0.06675423 0.026707223 -0.10007268 0.028096896 0.038339086
-0.040533017 -0.049672794 -0.036206406 0.012894293 0.0059649814 -0.00866108 -0.030613521 0.08128201
-0.046806213 -0.0061654258 -0.08228101 -0.08313097 -0.06322293 -0.050416276 0.040490452 -0.0013214999
0.10121125 0.012055136 0.01024075 -0.07959114 -0.06218135 -0.041062307 0.112793244 0.132318
-0.03716063 0.081612065 -0.009121067 0.0854844 -0.07011944 0.17522079 0.051707204 0.0077065034
0.07567571 -0.03408674 0.16080937 -0.03224599 -0.019194549 0.02348842 -0.008289716 0.014162138
-0.08993314 -0.01994737 -0.0198589 -0.043174427 -0.058805365 0.000758285 -0.067183584 0.11399287
-0.045459673 0.061868172 0.04542692 0.024950461 0.07147074 0.2010525 0.17198473 -0.15560699
-0.099783756 -0.06551458 0.16029081 -0.00022716276 -0.1429545 0.030520339 0.0578741 -0.049870774
-0.08220566 -0.13309029 0.14320126 0.035054598 -0.0652619 -0.13627991 -0.0911687 0.0014893593
-0.02922589 0.051815093 -0.0026020652 -0.12582935 -0.003070057 -0.0067303786 0.020598628 0.0530829
-0.08658527 0.03215552 0.02200742 -0.10170644 -0.0057896446 0.05332095 0.0060249004 -0.030273477
0.0034783608 0.06896044 0.023327718 0.09538751 0.0404123 0.056493584 -0.011690231 -0.046365082
0.10131361 -0.024703592 0.08197143 -0.015971571 0.14543584 -0.016723435 -0.0404312 0.060148716
-0.06474416 0.02242221 0.11739851 0.04480253 0.19995709 -0.036290754 -0.11717742 -0.085730046
0.032091845 0.059298523 0.03234024 -0.03161709 -0.08800893 0.0061201123 -0.044822805 -0.04732217
-0.034027733 0.06418854 -0.029374383 -0.007833041 -0.029200517 0.0049079233 0.0151071185 0.041131053
0.06431202 0.0058201887 -0.08577409 -0.01572646 0.009173634 0.057961263 -0.05077204 -0.051629744
-0.0037038187 0.15470938 0.036527652 -0.046805978 -0.037882224 -0.11270186 -0.009979101 -0.00033379125
0.0072572436 0.023744946 0.034153778 -0.0180015 0.01823617 -0.06284741 0.008341016 -0.011851849

cnn2.bias f4 [32]
00000000: 7b43 0b3d 751c 803c 8165 f83c c037 f8bd
00000010: f2ac 173d 92c7 3dbc 2553 753d 3ef0 623b
00000020: 0f87 a6bd 4aa8 93bc 25aa a13c ee23 3f3d
00000030: 691f e8bb bd86 30bd ce4a 9e3d 0af5 a4bd
00000040: cd23 7c3d e2ed 8b3d a4ba 7fbd 9239 6abd
00000050: dc70 cbbb 120f 833d 9b47 b1bd 4570 81bd
00000060: 9812 00bd fd22 763c f36d 243d bffa 8cbc
00000070: 978c cd3c 5261 bc3c 4c2f 973c 288b df3c
0.0339999 0.01563857 0.030321838 -0.121200085 0.037030168 -0.011583226 0.059893746 0.0034628059
-0.08131229 -0.018024582 0.019734452 0.046665125 -0.0070838225 -0.043097246 0.077291116 -0.0805455
0.06155758 0.06832482 -0.062433854 -0.05718381 -0.0062085222 0.06399359 -0.08656236 -0.06320242
-0.031267732 0.01502299 0.04014392 -0.017209409 0.025091453 0.022995625 0.01845517 0.027288035

fc1.weight f4 [10, 512]
00000000: ca7d 15bd c437 8f3d d8a9 1b3d 1160 a7bc
00000010: 5dcd 88bd 1bb1 5b3d 7600 2fbe 9435 03be
00000020: 7294 733e b621 04be f9b4 fa3d b43c 043d
00000030: 7ddf 923d ada0 49bd afc4 d53d 8a92 c1bb
00000040: dc35 17bc 05b3 bbbd 06f7 843d d406 8b3d
00000050: 0635 8d3d 5edf 043e 6b6b f0bc fe7e b83d
00000060: 95e9 93bd cdbd c0bd 08e8 dcbd a95d 103e
00000070: 2245 893b a7bb 293d eba1 29bc 65cf cabb
00000080: 3eab 41bc 23a3 3c3d 7ec6 afbd 5567 8b3d
00000090: 89de 86bd 6e49 0c3b 4941 2bbd 9bb0 97bd
000000a0: ca28 ae3d 0bb9 cd3d 7d54 c2bd 88af 893d
000000b0: e632 a73d d4e3 24bb 22df 16bd f7d2 86bd
000000c0: 3719 57bd d46e 9fbd 4547 1e3d 9c67 38bd
000000d0: 3028 de3a 4385 e6bc dc8b 5b3d b40a c43d
000000e0: 75e5 30bc 11c9 42bc 9412 263e 337a 4dbd
000000f0: b9a2 21bc acae 3bbd c63f 55be 35fc c8bc
00000100: 4a31 ff3c 436a 963c db73 cf3d b7a5 6d3e
00000110: be85 1c3d f567 8fbc 9dc6 27be e4bc 37bb
00000120: ff9c 2b3d e9ac 8ebd 1314 4b3d 88af 0abe
00000130: 76d9 683d b8e3 f3bc 7110 1c3c 8561 35bd
00000140: dc08 0b3c e59e 863c 8d8b 193d 6897 1d3c
00000150: 9852 253d dd42 a43d fd95 8dbd a652 37bb
00000160: 6140 0dbc 1def a0bd 62e9 b2bc df67 ee3c
00000170: 2b2a f6ba 5965 543d 2201 05be 566d 103d
00000180: 3fb5 50bd 3176 863d b173 43bc 7ef1 1bbd
00000190: 6924 01bd 8070 4dbd 73db 983c db53 c33d
000001a0: fd2d febc 67cf b1bd 0742 0cbe 0e55 483d
000001b0: ef33 29bc 510b 953d 1d3d 5abd 1c7c 603c
000001c0: 9d49 743c e438 5a3d 0f01 0dbd 380d 9c3d
000001d0: 0bf8 78bd 88b3 c83d 065c 853c 0984 5fbe
000001e0: ba72 2dbe c27e 783e 0588 b73d 63c4 0e3d
000001f0: 9bf2 1ebc 00f5 033e 9ffb b7bd 95ae 6fbc
00000200: d9a4 803d b792 9fbd 66fd 6abc 96d2 1c3e
00000210: fc97 e73b faac 97bd a594 6ebe d4d0 87bd
00000220: 08a8 a2bd 2e4e e1bd 3872 033e e564 3abc
00000230: 78c3 87bd 9cb0 573d 5881 6fbd ede3 1c3d
00000240: 66ef b63c a261 373d 8b2d 833d c2db 153c
00000250: 4384 8cbd 8036 30bc e3ab 803c 5e1e e93d
00000260: 165f 19be 284b 233d 6ac5 703d b7a2 553d
00000270: 9579 01bc 8033 d3bc e379 8a3d 5e82 5cbd
00000280: 56e8 883c 07f7 143d 42b0 613d 8069 c1bc
00000290: bf41 a93c 2fe3 203e 5a52 acbd 4137 f0bd
000002a0: f172 94bd 02aa 033e 9743 2fbd 006e adbd
000002b0: a6ba 6bbd ed62 4d3d 50f0 203e 347c 603d
000002c0: 2406 ccbc 5f07 893b 8032 18bc 624f 353c
000002d0: 9ff6 18bd 2c98 88bd 2835 403d 9b9b fe3d
000002e0: 963b 95bd 44ce 0fbc 0cc2 82bd 7684 c2bd
000002f0: 4eac 053d dc43 fe3b 97ae d53c ddb8 adbc
00000300: 9088 c83a d0c8 fbba f422 e43c c8cf bb3c
00000310: aa87 143c ae3b 19bd ffc9 8f3d 13e8 d3bd
00000320: ece6 1ebd c9b8 d53c f6f1 fdbc 8c3f 193e
00000330: 0f9d 453c fe8b f8bb ef98 9ebd 4d50 b53b
00000340: 1e82 c93c 19e4 2f3d 7237 0f3d cac4 763b
00000350: b271 e73d 0e80 62bb 938e 00bc e5a2 af3b
00000360: 7886 f8bc 5c69 96ba ba97 473c 3809 243c
00000370: 2225 db3b 6986 97bb 69c5 eebd 8d05 863d
00000380: 8ebb 14bd c232 2abd 1ac2 073d 2628 7e3d
00000390: 9add e4bd 7457 9bbd a6ba 8d3c 95a3 a9bd
000003a0: 8d91 03be 5131 923e d24e 9bbc 59b5 123e
000003b0: 93c1 64bd 6811 b63d 12aa 59be 7cbe 26be
000003c0: f4f6 8abc 6a60 4b3d 5bb8 d33d 286d 803d
000003d0: ba9a 2abe 1732 7dbd c69e 87bc 2666 1abe
000003e0: edfe 50bd 3984 54bd b62c e13d 28e9 29be
000003f0: 1289 393b 4fd6 c33b e31e 333c 4763 453e
-0.036496915 0.06993058 0.038003772 -0.02043155 -0.06679795 0.053635698 -0.1709002 -0.12813407
0.23787096 -0.12903485 0.12241549 0.032284454 0.07171533 -0.049225498 0.10437905 -0.0059073614
-0.00922915 -0.09165005 0.064924285 0.06788412 0.06894879 0.12975833 -0.029348096 0.09008597
-0.072222866 -0.094112016 -0.10786444 0.14098229 0.0041891495 0.041438725 -0.010353546 -0.006189274
-0.0118206125 0.046054017 -0.08582781 0.068068184 -0.06585414 0.0021406072 -0.041810308 -0.07406732
0.08503874 0.1004506 -0.09488771 0.06722933 0.08164005 -0.002516021 -0.03683389 -0.06583207
-0.05251428 -0.07784811 0.038642187 -0.045020685 0.0016949233 -0.028139716 0.053600177 0.09572354
-0.010796894 -0.011888758 0.16218024 -0.050165366 -0.009865456 -0.045820877 -0.20825109 -0.024534324
0.031151433 0.018361216 0.101295196 0.23207746 0.038213484 -0.017505625 -0.16384359 -0.0028036172
0.04189777 -0.06966574 0.04957969 -0.13543522 0.056848012 -0.02977167 0.009525404 -0.044282455
0.008485999 0.016433189 0.0374866 0.009618618 0.04036197 0.08020566 -0.069133736 -0.0027972846
-0.008621306 -0.07858107 -0.021839801 0.029102264 -0.0018780878 0.051854465 -0.12988713 0.03526052
-0.0509541 0.06565512 -0.011929438 -0.0380721 -0.031528864 -0.050156116 0.018659329 0.095374785
-0.031027788 -0.08682137 -0.13697062 0.04890924 -0.010327323 0.07277549 -0.05328094 0.013701465
0.014910129 0.05327691 -0.034424838 0.07619709 -0.060783427 0.09799868 0.016279232 -0.21827711
-0.16938296 0.24267104 0.089614905 0.034855258 -0.009701396 0.12886429 -0.0898354 -0.014629026
0.06281442 -0.077916555 -0.014342641 0.15314707 0.0070676785 -0.074060395 -0.23298891 -0.06631628
-0.07942206 -0.1100124 0.1283654 -0.011376594 -0.066290796 0.052658662 -0.05847296 0.038303304
0.022330951 0.044770844 0.06405171 0.009146633 -0.068611644 -0.010755181 0.015706962 0.11382745
-0.14977679 0.039866596 0.05878202 0.05215713 -0.007902523 -0.025781393 0.06761529 -0.053835265
0.016712349 0.036368396 0.055099733 -0.023609877 0.020661233 0.15711664 -0.08414145 -0.11729289
-0.07248486 0.12857822 -0.042789068 -0.084682465 -0.05755105 0.05014317 0.15716672 0.05480595
-0.024905272 0.004181787 -0.009289384 0.01106629 -0.03734457 -0.066696495 0.046925694 0.12432023
-0.07286756 -0.008777205 -0.06384668 -0.09497921 0.032635026 0.0077595543 0.026084227 -0.021206314
0.0015299488 -0.0019209627 0.027848698 0.022926226 0.009065548 -0.03741043 0.070209496 -0.10346999
-0.038794443 0.026089089 -0.030999165 0.14965647 0.0120613715 -0.0075850477 -0.077440135 0.0055332542
0.024598178 0.04294214 0.034964986 0.0037653917 0.113009825 -0.003456119 -0.007846492 0.0053599947
-0.030337557 -0.0011475491 0.0121821705 0.010011964 0.006687776 -0.0046241772 -0.11658747 0.065440275
-0.03631168 -0.041552313 0.033144094 0.062050007 -0.1117508 -0.0758504 0.017300915 -0.08283154
-0.12848492 0.2855325 -0.018958483 0.14326991 -0.05584867 0.08890039 -0.21256283 -0.16283602
-0.01696346 0.049652494 0.103378974 0.0627082 -0.16660586 -0.061815348 -0.016555201 -0.15078029
-0.051024366 -0.05188391 0.10994856 -0.16592848 0.002831046 0.0059764753 0.010932657 0.19276153

fc1.bias f4 [10]
00000000: caf8 64bd 5af8 033c dd46 8cbc 098f 8ebd
00000010: 73d9 a8bb 206e 153d 1392 3dbd 123f 92bd
00000020: 4896 193e 568c 733d
-0.055901326 0.008054817 -0.017123634 -0.069608755 -0.005152875 0.036481977 -0.046281885 -0.07140936
0.14998734 0.059460007
